<?xml version="1.0" ?>
<net name="big_dense_stacked8" version="10">
	<layers>
		<layer id="0" name="input_2" type="Parameter" version="opset1">
			<data shape="1, 128" element_type="f16"/>
			<output>
				<port id="0" precision="FP16" names="Func/StatefulPartitionedCall/input/_0:0,input_2:0">
					<dim>1</dim>
					<dim>128</dim>
				</port>
			</output>
		</layer>
		<layer id="1" name="StatefulPartitionedCall/big_dense_stacked8/dense_8/MatMul/ReadVariableOp" type="Const" version="opset1">
			<data element_type="f16" shape="512, 128" offset="0" size="131072"/>
			<output>
				<port id="0" precision="FP16" names="StatefulPartitionedCall/big_dense_stacked8/dense_8/MatMul/ReadVariableOp:0">
					<dim>512</dim>
					<dim>128</dim>
				</port>
			</output>
		</layer>
		<layer id="2" name="StatefulPartitionedCall/big_dense_stacked8/dense_8/MatMul" type="MatMul" version="opset1">
			<data transpose_a="false" transpose_b="true"/>
			<input>
				<port id="0" precision="FP16">
					<dim>1</dim>
					<dim>128</dim>
				</port>
				<port id="1" precision="FP16">
					<dim>512</dim>
					<dim>128</dim>
				</port>
			</input>
			<output>
				<port id="2" precision="FP16" names="StatefulPartitionedCall/big_dense_stacked8/dense_8/MatMul:0">
					<dim>1</dim>
					<dim>512</dim>
				</port>
			</output>
		</layer>
		<layer id="3" name="StatefulPartitionedCall/big_dense_stacked8/dense_8/BiasAdd/ReadVariableOp" type="Const" version="opset1">
			<data element_type="f16" shape="1, 512" offset="131072" size="1024"/>
			<output>
				<port id="0" precision="FP16" names="StatefulPartitionedCall/big_dense_stacked8/dense_8/BiasAdd/ReadVariableOp:0">
					<dim>1</dim>
					<dim>512</dim>
				</port>
			</output>
		</layer>
		<layer id="4" name="StatefulPartitionedCall/big_dense_stacked8/dense_8/BiasAdd/Add" type="Add" version="opset1">
			<data auto_broadcast="numpy"/>
			<input>
				<port id="0" precision="FP16">
					<dim>1</dim>
					<dim>512</dim>
				</port>
				<port id="1" precision="FP16">
					<dim>1</dim>
					<dim>512</dim>
				</port>
			</input>
			<output>
				<port id="2" precision="FP16" names="StatefulPartitionedCall/big_dense_stacked8/dense_8/BiasAdd:0">
					<dim>1</dim>
					<dim>512</dim>
				</port>
			</output>
		</layer>
		<layer id="5" name="StatefulPartitionedCall/big_dense_stacked8/dense_9/MatMul/ReadVariableOp" type="Const" version="opset1">
			<data element_type="f16" shape="512, 512" offset="132096" size="524288"/>
			<output>
				<port id="0" precision="FP16" names="StatefulPartitionedCall/big_dense_stacked8/dense_9/MatMul/ReadVariableOp:0">
					<dim>512</dim>
					<dim>512</dim>
				</port>
			</output>
		</layer>
		<layer id="6" name="StatefulPartitionedCall/big_dense_stacked8/dense_9/MatMul" type="MatMul" version="opset1">
			<data transpose_a="false" transpose_b="true"/>
			<input>
				<port id="0" precision="FP16">
					<dim>1</dim>
					<dim>512</dim>
				</port>
				<port id="1" precision="FP16">
					<dim>512</dim>
					<dim>512</dim>
				</port>
			</input>
			<output>
				<port id="2" precision="FP16" names="StatefulPartitionedCall/big_dense_stacked8/dense_9/MatMul:0">
					<dim>1</dim>
					<dim>512</dim>
				</port>
			</output>
		</layer>
		<layer id="7" name="StatefulPartitionedCall/big_dense_stacked8/dense_9/BiasAdd/ReadVariableOp" type="Const" version="opset1">
			<data element_type="f16" shape="1, 512" offset="131072" size="1024"/>
			<output>
				<port id="0" precision="FP16" names="StatefulPartitionedCall/big_dense_stacked8/dense_9/BiasAdd/ReadVariableOp:0">
					<dim>1</dim>
					<dim>512</dim>
				</port>
			</output>
		</layer>
		<layer id="8" name="StatefulPartitionedCall/big_dense_stacked8/dense_9/BiasAdd/Add" type="Add" version="opset1">
			<data auto_broadcast="numpy"/>
			<input>
				<port id="0" precision="FP16">
					<dim>1</dim>
					<dim>512</dim>
				</port>
				<port id="1" precision="FP16">
					<dim>1</dim>
					<dim>512</dim>
				</port>
			</input>
			<output>
				<port id="2" precision="FP16" names="StatefulPartitionedCall/big_dense_stacked8/dense_9/BiasAdd:0">
					<dim>1</dim>
					<dim>512</dim>
				</port>
			</output>
		</layer>
		<layer id="9" name="StatefulPartitionedCall/big_dense_stacked8/dense_10/MatMul/ReadVariableOp" type="Const" version="opset1">
			<data element_type="f16" shape="512, 512" offset="656384" size="524288"/>
			<output>
				<port id="0" precision="FP16" names="StatefulPartitionedCall/big_dense_stacked8/dense_10/MatMul/ReadVariableOp:0">
					<dim>512</dim>
					<dim>512</dim>
				</port>
			</output>
		</layer>
		<layer id="10" name="StatefulPartitionedCall/big_dense_stacked8/dense_10/MatMul" type="MatMul" version="opset1">
			<data transpose_a="false" transpose_b="true"/>
			<input>
				<port id="0" precision="FP16">
					<dim>1</dim>
					<dim>512</dim>
				</port>
				<port id="1" precision="FP16">
					<dim>512</dim>
					<dim>512</dim>
				</port>
			</input>
			<output>
				<port id="2" precision="FP16" names="StatefulPartitionedCall/big_dense_stacked8/dense_10/MatMul:0">
					<dim>1</dim>
					<dim>512</dim>
				</port>
			</output>
		</layer>
		<layer id="11" name="StatefulPartitionedCall/big_dense_stacked8/dense_10/BiasAdd/ReadVariableOp" type="Const" version="opset1">
			<data element_type="f16" shape="1, 512" offset="131072" size="1024"/>
			<output>
				<port id="0" precision="FP16" names="StatefulPartitionedCall/big_dense_stacked8/dense_10/BiasAdd/ReadVariableOp:0">
					<dim>1</dim>
					<dim>512</dim>
				</port>
			</output>
		</layer>
		<layer id="12" name="StatefulPartitionedCall/big_dense_stacked8/dense_10/BiasAdd/Add" type="Add" version="opset1">
			<data auto_broadcast="numpy"/>
			<input>
				<port id="0" precision="FP16">
					<dim>1</dim>
					<dim>512</dim>
				</port>
				<port id="1" precision="FP16">
					<dim>1</dim>
					<dim>512</dim>
				</port>
			</input>
			<output>
				<port id="2" precision="FP16" names="StatefulPartitionedCall/big_dense_stacked8/dense_10/BiasAdd:0">
					<dim>1</dim>
					<dim>512</dim>
				</port>
			</output>
		</layer>
		<layer id="13" name="StatefulPartitionedCall/big_dense_stacked8/dense_11/MatMul/ReadVariableOp" type="Const" version="opset1">
			<data element_type="f16" shape="512, 512" offset="1180672" size="524288"/>
			<output>
				<port id="0" precision="FP16" names="StatefulPartitionedCall/big_dense_stacked8/dense_11/MatMul/ReadVariableOp:0">
					<dim>512</dim>
					<dim>512</dim>
				</port>
			</output>
		</layer>
		<layer id="14" name="StatefulPartitionedCall/big_dense_stacked8/dense_11/MatMul" type="MatMul" version="opset1">
			<data transpose_a="false" transpose_b="true"/>
			<input>
				<port id="0" precision="FP16">
					<dim>1</dim>
					<dim>512</dim>
				</port>
				<port id="1" precision="FP16">
					<dim>512</dim>
					<dim>512</dim>
				</port>
			</input>
			<output>
				<port id="2" precision="FP16" names="StatefulPartitionedCall/big_dense_stacked8/dense_11/MatMul:0">
					<dim>1</dim>
					<dim>512</dim>
				</port>
			</output>
		</layer>
		<layer id="15" name="StatefulPartitionedCall/big_dense_stacked8/dense_11/BiasAdd/ReadVariableOp" type="Const" version="opset1">
			<data element_type="f16" shape="1, 512" offset="131072" size="1024"/>
			<output>
				<port id="0" precision="FP16" names="StatefulPartitionedCall/big_dense_stacked8/dense_11/BiasAdd/ReadVariableOp:0">
					<dim>1</dim>
					<dim>512</dim>
				</port>
			</output>
		</layer>
		<layer id="16" name="StatefulPartitionedCall/big_dense_stacked8/dense_11/BiasAdd/Add" type="Add" version="opset1">
			<data auto_broadcast="numpy"/>
			<input>
				<port id="0" precision="FP16">
					<dim>1</dim>
					<dim>512</dim>
				</port>
				<port id="1" precision="FP16">
					<dim>1</dim>
					<dim>512</dim>
				</port>
			</input>
			<output>
				<port id="2" precision="FP16" names="StatefulPartitionedCall/big_dense_stacked8/dense_11/BiasAdd:0">
					<dim>1</dim>
					<dim>512</dim>
				</port>
			</output>
		</layer>
		<layer id="17" name="StatefulPartitionedCall/big_dense_stacked8/dense_12/MatMul/ReadVariableOp" type="Const" version="opset1">
			<data element_type="f16" shape="512, 512" offset="1704960" size="524288"/>
			<output>
				<port id="0" precision="FP16" names="StatefulPartitionedCall/big_dense_stacked8/dense_12/MatMul/ReadVariableOp:0">
					<dim>512</dim>
					<dim>512</dim>
				</port>
			</output>
		</layer>
		<layer id="18" name="StatefulPartitionedCall/big_dense_stacked8/dense_12/MatMul" type="MatMul" version="opset1">
			<data transpose_a="false" transpose_b="true"/>
			<input>
				<port id="0" precision="FP16">
					<dim>1</dim>
					<dim>512</dim>
				</port>
				<port id="1" precision="FP16">
					<dim>512</dim>
					<dim>512</dim>
				</port>
			</input>
			<output>
				<port id="2" precision="FP16" names="StatefulPartitionedCall/big_dense_stacked8/dense_12/MatMul:0">
					<dim>1</dim>
					<dim>512</dim>
				</port>
			</output>
		</layer>
		<layer id="19" name="StatefulPartitionedCall/big_dense_stacked8/dense_12/BiasAdd/ReadVariableOp" type="Const" version="opset1">
			<data element_type="f16" shape="1, 512" offset="131072" size="1024"/>
			<output>
				<port id="0" precision="FP16" names="StatefulPartitionedCall/big_dense_stacked8/dense_12/BiasAdd/ReadVariableOp:0">
					<dim>1</dim>
					<dim>512</dim>
				</port>
			</output>
		</layer>
		<layer id="20" name="StatefulPartitionedCall/big_dense_stacked8/dense_12/BiasAdd/Add" type="Add" version="opset1">
			<data auto_broadcast="numpy"/>
			<input>
				<port id="0" precision="FP16">
					<dim>1</dim>
					<dim>512</dim>
				</port>
				<port id="1" precision="FP16">
					<dim>1</dim>
					<dim>512</dim>
				</port>
			</input>
			<output>
				<port id="2" precision="FP16" names="StatefulPartitionedCall/big_dense_stacked8/dense_12/BiasAdd:0">
					<dim>1</dim>
					<dim>512</dim>
				</port>
			</output>
		</layer>
		<layer id="21" name="StatefulPartitionedCall/big_dense_stacked8/dense_13/MatMul/ReadVariableOp" type="Const" version="opset1">
			<data element_type="f16" shape="512, 512" offset="2229248" size="524288"/>
			<output>
				<port id="0" precision="FP16" names="StatefulPartitionedCall/big_dense_stacked8/dense_13/MatMul/ReadVariableOp:0">
					<dim>512</dim>
					<dim>512</dim>
				</port>
			</output>
		</layer>
		<layer id="22" name="StatefulPartitionedCall/big_dense_stacked8/dense_13/MatMul" type="MatMul" version="opset1">
			<data transpose_a="false" transpose_b="true"/>
			<input>
				<port id="0" precision="FP16">
					<dim>1</dim>
					<dim>512</dim>
				</port>
				<port id="1" precision="FP16">
					<dim>512</dim>
					<dim>512</dim>
				</port>
			</input>
			<output>
				<port id="2" precision="FP16" names="StatefulPartitionedCall/big_dense_stacked8/dense_13/MatMul:0">
					<dim>1</dim>
					<dim>512</dim>
				</port>
			</output>
		</layer>
		<layer id="23" name="StatefulPartitionedCall/big_dense_stacked8/dense_13/BiasAdd/ReadVariableOp" type="Const" version="opset1">
			<data element_type="f16" shape="1, 512" offset="131072" size="1024"/>
			<output>
				<port id="0" precision="FP16" names="StatefulPartitionedCall/big_dense_stacked8/dense_13/BiasAdd/ReadVariableOp:0">
					<dim>1</dim>
					<dim>512</dim>
				</port>
			</output>
		</layer>
		<layer id="24" name="StatefulPartitionedCall/big_dense_stacked8/dense_13/BiasAdd/Add" type="Add" version="opset1">
			<data auto_broadcast="numpy"/>
			<input>
				<port id="0" precision="FP16">
					<dim>1</dim>
					<dim>512</dim>
				</port>
				<port id="1" precision="FP16">
					<dim>1</dim>
					<dim>512</dim>
				</port>
			</input>
			<output>
				<port id="2" precision="FP16" names="StatefulPartitionedCall/big_dense_stacked8/dense_13/BiasAdd:0">
					<dim>1</dim>
					<dim>512</dim>
				</port>
			</output>
		</layer>
		<layer id="25" name="StatefulPartitionedCall/big_dense_stacked8/dense_14/MatMul/ReadVariableOp" type="Const" version="opset1">
			<data element_type="f16" shape="512, 512" offset="2753536" size="524288"/>
			<output>
				<port id="0" precision="FP16" names="StatefulPartitionedCall/big_dense_stacked8/dense_14/MatMul/ReadVariableOp:0">
					<dim>512</dim>
					<dim>512</dim>
				</port>
			</output>
		</layer>
		<layer id="26" name="StatefulPartitionedCall/big_dense_stacked8/dense_14/MatMul" type="MatMul" version="opset1">
			<data transpose_a="false" transpose_b="true"/>
			<input>
				<port id="0" precision="FP16">
					<dim>1</dim>
					<dim>512</dim>
				</port>
				<port id="1" precision="FP16">
					<dim>512</dim>
					<dim>512</dim>
				</port>
			</input>
			<output>
				<port id="2" precision="FP16" names="StatefulPartitionedCall/big_dense_stacked8/dense_14/MatMul:0">
					<dim>1</dim>
					<dim>512</dim>
				</port>
			</output>
		</layer>
		<layer id="27" name="StatefulPartitionedCall/big_dense_stacked8/dense_14/BiasAdd/ReadVariableOp" type="Const" version="opset1">
			<data element_type="f16" shape="1, 512" offset="131072" size="1024"/>
			<output>
				<port id="0" precision="FP16" names="StatefulPartitionedCall/big_dense_stacked8/dense_14/BiasAdd/ReadVariableOp:0">
					<dim>1</dim>
					<dim>512</dim>
				</port>
			</output>
		</layer>
		<layer id="28" name="StatefulPartitionedCall/big_dense_stacked8/dense_14/BiasAdd/Add" type="Add" version="opset1">
			<data auto_broadcast="numpy"/>
			<input>
				<port id="0" precision="FP16">
					<dim>1</dim>
					<dim>512</dim>
				</port>
				<port id="1" precision="FP16">
					<dim>1</dim>
					<dim>512</dim>
				</port>
			</input>
			<output>
				<port id="2" precision="FP16" names="StatefulPartitionedCall/big_dense_stacked8/dense_14/BiasAdd:0">
					<dim>1</dim>
					<dim>512</dim>
				</port>
			</output>
		</layer>
		<layer id="29" name="StatefulPartitionedCall/big_dense_stacked8/dense_15/MatMul/ReadVariableOp" type="Const" version="opset1">
			<data element_type="f16" shape="512, 512" offset="3277824" size="524288"/>
			<output>
				<port id="0" precision="FP16" names="StatefulPartitionedCall/big_dense_stacked8/dense_15/MatMul/ReadVariableOp:0">
					<dim>512</dim>
					<dim>512</dim>
				</port>
			</output>
		</layer>
		<layer id="30" name="StatefulPartitionedCall/big_dense_stacked8/dense_15/MatMul" type="MatMul" version="opset1">
			<data transpose_a="false" transpose_b="true"/>
			<input>
				<port id="0" precision="FP16">
					<dim>1</dim>
					<dim>512</dim>
				</port>
				<port id="1" precision="FP16">
					<dim>512</dim>
					<dim>512</dim>
				</port>
			</input>
			<output>
				<port id="2" precision="FP16" names="StatefulPartitionedCall/big_dense_stacked8/dense_15/MatMul:0">
					<dim>1</dim>
					<dim>512</dim>
				</port>
			</output>
		</layer>
		<layer id="31" name="StatefulPartitionedCall/big_dense_stacked8/dense_15/BiasAdd/ReadVariableOp" type="Const" version="opset1">
			<data element_type="f16" shape="1, 512" offset="131072" size="1024"/>
			<output>
				<port id="0" precision="FP16" names="StatefulPartitionedCall/big_dense_stacked8/dense_15/BiasAdd/ReadVariableOp:0">
					<dim>1</dim>
					<dim>512</dim>
				</port>
			</output>
		</layer>
		<layer id="32" name="StatefulPartitionedCall/big_dense_stacked8/dense_15/BiasAdd/Add" type="Add" version="opset1">
			<data auto_broadcast="numpy"/>
			<input>
				<port id="0" precision="FP16">
					<dim>1</dim>
					<dim>512</dim>
				</port>
				<port id="1" precision="FP16">
					<dim>1</dim>
					<dim>512</dim>
				</port>
			</input>
			<output>
				<port id="2" precision="FP16" names="Func/StatefulPartitionedCall/output/_17:0,Identity:0,StatefulPartitionedCall/Identity:0,StatefulPartitionedCall/big_dense_stacked8/dense_15/BiasAdd:0">
					<dim>1</dim>
					<dim>512</dim>
				</port>
			</output>
		</layer>
		<layer id="33" name="Func/StatefulPartitionedCall/output/_17:0" type="Result" version="opset1">
			<input>
				<port id="0" precision="FP16">
					<dim>1</dim>
					<dim>512</dim>
				</port>
			</input>
		</layer>
	</layers>
	<edges>
		<edge from-layer="0" from-port="0" to-layer="2" to-port="0"/>
		<edge from-layer="1" from-port="0" to-layer="2" to-port="1"/>
		<edge from-layer="2" from-port="2" to-layer="4" to-port="0"/>
		<edge from-layer="3" from-port="0" to-layer="4" to-port="1"/>
		<edge from-layer="4" from-port="2" to-layer="6" to-port="0"/>
		<edge from-layer="5" from-port="0" to-layer="6" to-port="1"/>
		<edge from-layer="6" from-port="2" to-layer="8" to-port="0"/>
		<edge from-layer="7" from-port="0" to-layer="8" to-port="1"/>
		<edge from-layer="8" from-port="2" to-layer="10" to-port="0"/>
		<edge from-layer="9" from-port="0" to-layer="10" to-port="1"/>
		<edge from-layer="10" from-port="2" to-layer="12" to-port="0"/>
		<edge from-layer="11" from-port="0" to-layer="12" to-port="1"/>
		<edge from-layer="12" from-port="2" to-layer="14" to-port="0"/>
		<edge from-layer="13" from-port="0" to-layer="14" to-port="1"/>
		<edge from-layer="14" from-port="2" to-layer="16" to-port="0"/>
		<edge from-layer="15" from-port="0" to-layer="16" to-port="1"/>
		<edge from-layer="16" from-port="2" to-layer="18" to-port="0"/>
		<edge from-layer="17" from-port="0" to-layer="18" to-port="1"/>
		<edge from-layer="18" from-port="2" to-layer="20" to-port="0"/>
		<edge from-layer="19" from-port="0" to-layer="20" to-port="1"/>
		<edge from-layer="20" from-port="2" to-layer="22" to-port="0"/>
		<edge from-layer="21" from-port="0" to-layer="22" to-port="1"/>
		<edge from-layer="22" from-port="2" to-layer="24" to-port="0"/>
		<edge from-layer="23" from-port="0" to-layer="24" to-port="1"/>
		<edge from-layer="24" from-port="2" to-layer="26" to-port="0"/>
		<edge from-layer="25" from-port="0" to-layer="26" to-port="1"/>
		<edge from-layer="26" from-port="2" to-layer="28" to-port="0"/>
		<edge from-layer="27" from-port="0" to-layer="28" to-port="1"/>
		<edge from-layer="28" from-port="2" to-layer="30" to-port="0"/>
		<edge from-layer="29" from-port="0" to-layer="30" to-port="1"/>
		<edge from-layer="30" from-port="2" to-layer="32" to-port="0"/>
		<edge from-layer="31" from-port="0" to-layer="32" to-port="1"/>
		<edge from-layer="32" from-port="2" to-layer="33" to-port="0"/>
	</edges>
	<meta_data>
		<MO_version value="2021.4.1-3926-14e67d86634-releases/2021/4"/>
		<cli_parameters>
			<caffe_parser_path value="DIR"/>
			<data_type value="FP16"/>
			<disable_nhwc_to_nchw value="False"/>
			<disable_omitting_optional value="False"/>
			<disable_resnet_optimization value="False"/>
			<disable_weights_compression value="False"/>
			<enable_concat_optimization value="False"/>
			<enable_flattening_nested_params value="False"/>
			<enable_ssd_gluoncv value="False"/>
			<extensions value="DIR"/>
			<framework value="tf"/>
			<freeze_placeholder_with_value value="{}"/>
			<generate_deprecated_IR_V7 value="False"/>
			<input_model_is_text value="True"/>
			<k value="DIR\CustomLayersMapping.xml"/>
			<keep_shape_ops value="True"/>
			<legacy_ir_generation value="False"/>
			<legacy_mxnet_model value="False"/>
			<log_level value="ERROR"/>
			<mean_scale_values value="{}"/>
			<mean_values value="()"/>
			<model_name value="big_dense_stacked8"/>
			<output_dir value="DIR"/>
			<placeholder_data_types value="{}"/>
			<progress value="True"/>
			<remove_memory value="False"/>
			<remove_output_softmax value="False"/>
			<reverse_input_channels value="False"/>
			<save_params_from_nd value="False"/>
			<saved_model_dir value="DIR"/>
			<scale_values value="()"/>
			<silent value="False"/>
			<static_shape value="False"/>
			<stream_output value="False"/>
			<transform value=""/>
			<unset unset_cli_parameters="batch, counts, disable_fusing, disable_gfusing, finegrain_fusing, input, input_checkpoint, input_meta_graph, input_model, input_proto, input_shape, input_symbol, mean_file, mean_file_offsets, move_to_preprocess, nd_prefix_name, output, placeholder_shapes, pretrained_model_name, saved_model_tags, scale, tensorboard_logdir, tensorflow_custom_layer_libraries, tensorflow_custom_operations_config_update, tensorflow_object_detection_api_pipeline_config, tensorflow_use_custom_operations_config, transformations_config"/>
		</cli_parameters>
	</meta_data>
</net>
