<?xml version="1.0" ?>
<net name="big_conv2d_stacked8" version="10">
	<layers>
		<layer id="0" name="input_1" type="Parameter" version="opset1">
			<data shape="1, 3, 128, 128" element_type="f16"/>
			<output>
				<port id="0" precision="FP16" names="Func/StatefulPartitionedCall/input/_0:0,input_1:0">
					<dim>1</dim>
					<dim>3</dim>
					<dim>128</dim>
					<dim>128</dim>
				</port>
			</output>
		</layer>
		<layer id="1" name="StatefulPartitionedCall/big_conv2d_stacked8/conv2d_19/Conv2D/ReadVariableOp" type="Const" version="opset1">
			<data element_type="f16" shape="9, 3, 7, 7" offset="0" size="2646"/>
			<output>
				<port id="0" precision="FP16" names="StatefulPartitionedCall/big_conv2d_stacked8/conv2d_19/Conv2D/ReadVariableOp:0">
					<dim>9</dim>
					<dim>3</dim>
					<dim>7</dim>
					<dim>7</dim>
				</port>
			</output>
		</layer>
		<layer id="2" name="StatefulPartitionedCall/big_conv2d_stacked8/conv2d_19/Conv2D" type="Convolution" version="opset1">
			<data strides="1, 1" dilations="1, 1" pads_begin="0, 0" pads_end="0, 0" auto_pad="valid"/>
			<input>
				<port id="0" precision="FP16">
					<dim>1</dim>
					<dim>3</dim>
					<dim>128</dim>
					<dim>128</dim>
				</port>
				<port id="1" precision="FP16">
					<dim>9</dim>
					<dim>3</dim>
					<dim>7</dim>
					<dim>7</dim>
				</port>
			</input>
			<output>
				<port id="2" precision="FP16" names="StatefulPartitionedCall/big_conv2d_stacked8/conv2d_19/Conv2D:0">
					<dim>1</dim>
					<dim>9</dim>
					<dim>122</dim>
					<dim>122</dim>
				</port>
			</output>
		</layer>
		<layer id="3" name="StatefulPartitionedCall/big_conv2d_stacked8/conv2d_19/BiasAdd/ReadVariableOp" type="Const" version="opset1">
			<data element_type="f16" shape="1, 9, 1, 1" offset="2646" size="18"/>
			<output>
				<port id="0" precision="FP16" names="StatefulPartitionedCall/big_conv2d_stacked8/conv2d_19/BiasAdd/ReadVariableOp:0">
					<dim>1</dim>
					<dim>9</dim>
					<dim>1</dim>
					<dim>1</dim>
				</port>
			</output>
		</layer>
		<layer id="4" name="StatefulPartitionedCall/big_conv2d_stacked8/conv2d_19/BiasAdd/Add" type="Add" version="opset1">
			<data auto_broadcast="numpy"/>
			<input>
				<port id="0" precision="FP16">
					<dim>1</dim>
					<dim>9</dim>
					<dim>122</dim>
					<dim>122</dim>
				</port>
				<port id="1" precision="FP16">
					<dim>1</dim>
					<dim>9</dim>
					<dim>1</dim>
					<dim>1</dim>
				</port>
			</input>
			<output>
				<port id="2" precision="FP16" names="StatefulPartitionedCall/big_conv2d_stacked8/conv2d_19/BiasAdd:0">
					<dim>1</dim>
					<dim>9</dim>
					<dim>122</dim>
					<dim>122</dim>
				</port>
			</output>
		</layer>
		<layer id="5" name="StatefulPartitionedCall/big_conv2d_stacked8/conv2d_20/Conv2D/ReadVariableOp" type="Const" version="opset1">
			<data element_type="f16" shape="9, 9, 7, 7" offset="2664" size="7938"/>
			<output>
				<port id="0" precision="FP16" names="StatefulPartitionedCall/big_conv2d_stacked8/conv2d_20/Conv2D/ReadVariableOp:0">
					<dim>9</dim>
					<dim>9</dim>
					<dim>7</dim>
					<dim>7</dim>
				</port>
			</output>
		</layer>
		<layer id="6" name="StatefulPartitionedCall/big_conv2d_stacked8/conv2d_20/Conv2D" type="Convolution" version="opset1">
			<data strides="1, 1" dilations="1, 1" pads_begin="0, 0" pads_end="0, 0" auto_pad="valid"/>
			<input>
				<port id="0" precision="FP16">
					<dim>1</dim>
					<dim>9</dim>
					<dim>122</dim>
					<dim>122</dim>
				</port>
				<port id="1" precision="FP16">
					<dim>9</dim>
					<dim>9</dim>
					<dim>7</dim>
					<dim>7</dim>
				</port>
			</input>
			<output>
				<port id="2" precision="FP16" names="StatefulPartitionedCall/big_conv2d_stacked8/conv2d_20/Conv2D:0">
					<dim>1</dim>
					<dim>9</dim>
					<dim>116</dim>
					<dim>116</dim>
				</port>
			</output>
		</layer>
		<layer id="7" name="StatefulPartitionedCall/big_conv2d_stacked8/conv2d_20/BiasAdd/ReadVariableOp" type="Const" version="opset1">
			<data element_type="f16" shape="1, 9, 1, 1" offset="2646" size="18"/>
			<output>
				<port id="0" precision="FP16" names="StatefulPartitionedCall/big_conv2d_stacked8/conv2d_20/BiasAdd/ReadVariableOp:0">
					<dim>1</dim>
					<dim>9</dim>
					<dim>1</dim>
					<dim>1</dim>
				</port>
			</output>
		</layer>
		<layer id="8" name="StatefulPartitionedCall/big_conv2d_stacked8/conv2d_20/BiasAdd/Add" type="Add" version="opset1">
			<data auto_broadcast="numpy"/>
			<input>
				<port id="0" precision="FP16">
					<dim>1</dim>
					<dim>9</dim>
					<dim>116</dim>
					<dim>116</dim>
				</port>
				<port id="1" precision="FP16">
					<dim>1</dim>
					<dim>9</dim>
					<dim>1</dim>
					<dim>1</dim>
				</port>
			</input>
			<output>
				<port id="2" precision="FP16" names="StatefulPartitionedCall/big_conv2d_stacked8/conv2d_20/BiasAdd:0">
					<dim>1</dim>
					<dim>9</dim>
					<dim>116</dim>
					<dim>116</dim>
				</port>
			</output>
		</layer>
		<layer id="9" name="StatefulPartitionedCall/big_conv2d_stacked8/conv2d_21/Conv2D/ReadVariableOp" type="Const" version="opset1">
			<data element_type="f16" shape="9, 9, 7, 7" offset="10602" size="7938"/>
			<output>
				<port id="0" precision="FP16" names="StatefulPartitionedCall/big_conv2d_stacked8/conv2d_21/Conv2D/ReadVariableOp:0">
					<dim>9</dim>
					<dim>9</dim>
					<dim>7</dim>
					<dim>7</dim>
				</port>
			</output>
		</layer>
		<layer id="10" name="StatefulPartitionedCall/big_conv2d_stacked8/conv2d_21/Conv2D" type="Convolution" version="opset1">
			<data strides="1, 1" dilations="1, 1" pads_begin="0, 0" pads_end="0, 0" auto_pad="valid"/>
			<input>
				<port id="0" precision="FP16">
					<dim>1</dim>
					<dim>9</dim>
					<dim>116</dim>
					<dim>116</dim>
				</port>
				<port id="1" precision="FP16">
					<dim>9</dim>
					<dim>9</dim>
					<dim>7</dim>
					<dim>7</dim>
				</port>
			</input>
			<output>
				<port id="2" precision="FP16" names="StatefulPartitionedCall/big_conv2d_stacked8/conv2d_21/Conv2D:0">
					<dim>1</dim>
					<dim>9</dim>
					<dim>110</dim>
					<dim>110</dim>
				</port>
			</output>
		</layer>
		<layer id="11" name="StatefulPartitionedCall/big_conv2d_stacked8/conv2d_21/BiasAdd/ReadVariableOp" type="Const" version="opset1">
			<data element_type="f16" shape="1, 9, 1, 1" offset="2646" size="18"/>
			<output>
				<port id="0" precision="FP16" names="StatefulPartitionedCall/big_conv2d_stacked8/conv2d_21/BiasAdd/ReadVariableOp:0">
					<dim>1</dim>
					<dim>9</dim>
					<dim>1</dim>
					<dim>1</dim>
				</port>
			</output>
		</layer>
		<layer id="12" name="StatefulPartitionedCall/big_conv2d_stacked8/conv2d_21/BiasAdd/Add" type="Add" version="opset1">
			<data auto_broadcast="numpy"/>
			<input>
				<port id="0" precision="FP16">
					<dim>1</dim>
					<dim>9</dim>
					<dim>110</dim>
					<dim>110</dim>
				</port>
				<port id="1" precision="FP16">
					<dim>1</dim>
					<dim>9</dim>
					<dim>1</dim>
					<dim>1</dim>
				</port>
			</input>
			<output>
				<port id="2" precision="FP16" names="StatefulPartitionedCall/big_conv2d_stacked8/conv2d_21/BiasAdd:0">
					<dim>1</dim>
					<dim>9</dim>
					<dim>110</dim>
					<dim>110</dim>
				</port>
			</output>
		</layer>
		<layer id="13" name="StatefulPartitionedCall/big_conv2d_stacked8/conv2d_22/Conv2D/ReadVariableOp" type="Const" version="opset1">
			<data element_type="f16" shape="9, 9, 7, 7" offset="18540" size="7938"/>
			<output>
				<port id="0" precision="FP16" names="StatefulPartitionedCall/big_conv2d_stacked8/conv2d_22/Conv2D/ReadVariableOp:0">
					<dim>9</dim>
					<dim>9</dim>
					<dim>7</dim>
					<dim>7</dim>
				</port>
			</output>
		</layer>
		<layer id="14" name="StatefulPartitionedCall/big_conv2d_stacked8/conv2d_22/Conv2D" type="Convolution" version="opset1">
			<data strides="1, 1" dilations="1, 1" pads_begin="0, 0" pads_end="0, 0" auto_pad="valid"/>
			<input>
				<port id="0" precision="FP16">
					<dim>1</dim>
					<dim>9</dim>
					<dim>110</dim>
					<dim>110</dim>
				</port>
				<port id="1" precision="FP16">
					<dim>9</dim>
					<dim>9</dim>
					<dim>7</dim>
					<dim>7</dim>
				</port>
			</input>
			<output>
				<port id="2" precision="FP16" names="StatefulPartitionedCall/big_conv2d_stacked8/conv2d_22/Conv2D:0">
					<dim>1</dim>
					<dim>9</dim>
					<dim>104</dim>
					<dim>104</dim>
				</port>
			</output>
		</layer>
		<layer id="15" name="StatefulPartitionedCall/big_conv2d_stacked8/conv2d_22/BiasAdd/ReadVariableOp" type="Const" version="opset1">
			<data element_type="f16" shape="1, 9, 1, 1" offset="2646" size="18"/>
			<output>
				<port id="0" precision="FP16" names="StatefulPartitionedCall/big_conv2d_stacked8/conv2d_22/BiasAdd/ReadVariableOp:0">
					<dim>1</dim>
					<dim>9</dim>
					<dim>1</dim>
					<dim>1</dim>
				</port>
			</output>
		</layer>
		<layer id="16" name="StatefulPartitionedCall/big_conv2d_stacked8/conv2d_22/BiasAdd/Add" type="Add" version="opset1">
			<data auto_broadcast="numpy"/>
			<input>
				<port id="0" precision="FP16">
					<dim>1</dim>
					<dim>9</dim>
					<dim>104</dim>
					<dim>104</dim>
				</port>
				<port id="1" precision="FP16">
					<dim>1</dim>
					<dim>9</dim>
					<dim>1</dim>
					<dim>1</dim>
				</port>
			</input>
			<output>
				<port id="2" precision="FP16" names="StatefulPartitionedCall/big_conv2d_stacked8/conv2d_22/BiasAdd:0">
					<dim>1</dim>
					<dim>9</dim>
					<dim>104</dim>
					<dim>104</dim>
				</port>
			</output>
		</layer>
		<layer id="17" name="StatefulPartitionedCall/big_conv2d_stacked8/conv2d_23/Conv2D/ReadVariableOp" type="Const" version="opset1">
			<data element_type="f16" shape="9, 9, 7, 7" offset="26478" size="7938"/>
			<output>
				<port id="0" precision="FP16" names="StatefulPartitionedCall/big_conv2d_stacked8/conv2d_23/Conv2D/ReadVariableOp:0">
					<dim>9</dim>
					<dim>9</dim>
					<dim>7</dim>
					<dim>7</dim>
				</port>
			</output>
		</layer>
		<layer id="18" name="StatefulPartitionedCall/big_conv2d_stacked8/conv2d_23/Conv2D" type="Convolution" version="opset1">
			<data strides="1, 1" dilations="1, 1" pads_begin="0, 0" pads_end="0, 0" auto_pad="valid"/>
			<input>
				<port id="0" precision="FP16">
					<dim>1</dim>
					<dim>9</dim>
					<dim>104</dim>
					<dim>104</dim>
				</port>
				<port id="1" precision="FP16">
					<dim>9</dim>
					<dim>9</dim>
					<dim>7</dim>
					<dim>7</dim>
				</port>
			</input>
			<output>
				<port id="2" precision="FP16" names="StatefulPartitionedCall/big_conv2d_stacked8/conv2d_23/Conv2D:0">
					<dim>1</dim>
					<dim>9</dim>
					<dim>98</dim>
					<dim>98</dim>
				</port>
			</output>
		</layer>
		<layer id="19" name="StatefulPartitionedCall/big_conv2d_stacked8/conv2d_23/BiasAdd/ReadVariableOp" type="Const" version="opset1">
			<data element_type="f16" shape="1, 9, 1, 1" offset="2646" size="18"/>
			<output>
				<port id="0" precision="FP16" names="StatefulPartitionedCall/big_conv2d_stacked8/conv2d_23/BiasAdd/ReadVariableOp:0">
					<dim>1</dim>
					<dim>9</dim>
					<dim>1</dim>
					<dim>1</dim>
				</port>
			</output>
		</layer>
		<layer id="20" name="StatefulPartitionedCall/big_conv2d_stacked8/conv2d_23/BiasAdd/Add" type="Add" version="opset1">
			<data auto_broadcast="numpy"/>
			<input>
				<port id="0" precision="FP16">
					<dim>1</dim>
					<dim>9</dim>
					<dim>98</dim>
					<dim>98</dim>
				</port>
				<port id="1" precision="FP16">
					<dim>1</dim>
					<dim>9</dim>
					<dim>1</dim>
					<dim>1</dim>
				</port>
			</input>
			<output>
				<port id="2" precision="FP16" names="StatefulPartitionedCall/big_conv2d_stacked8/conv2d_23/BiasAdd:0">
					<dim>1</dim>
					<dim>9</dim>
					<dim>98</dim>
					<dim>98</dim>
				</port>
			</output>
		</layer>
		<layer id="21" name="StatefulPartitionedCall/big_conv2d_stacked8/conv2d_24/Conv2D/ReadVariableOp" type="Const" version="opset1">
			<data element_type="f16" shape="9, 9, 7, 7" offset="34416" size="7938"/>
			<output>
				<port id="0" precision="FP16" names="StatefulPartitionedCall/big_conv2d_stacked8/conv2d_24/Conv2D/ReadVariableOp:0">
					<dim>9</dim>
					<dim>9</dim>
					<dim>7</dim>
					<dim>7</dim>
				</port>
			</output>
		</layer>
		<layer id="22" name="StatefulPartitionedCall/big_conv2d_stacked8/conv2d_24/Conv2D" type="Convolution" version="opset1">
			<data strides="1, 1" dilations="1, 1" pads_begin="0, 0" pads_end="0, 0" auto_pad="valid"/>
			<input>
				<port id="0" precision="FP16">
					<dim>1</dim>
					<dim>9</dim>
					<dim>98</dim>
					<dim>98</dim>
				</port>
				<port id="1" precision="FP16">
					<dim>9</dim>
					<dim>9</dim>
					<dim>7</dim>
					<dim>7</dim>
				</port>
			</input>
			<output>
				<port id="2" precision="FP16" names="StatefulPartitionedCall/big_conv2d_stacked8/conv2d_24/Conv2D:0">
					<dim>1</dim>
					<dim>9</dim>
					<dim>92</dim>
					<dim>92</dim>
				</port>
			</output>
		</layer>
		<layer id="23" name="StatefulPartitionedCall/big_conv2d_stacked8/conv2d_24/BiasAdd/ReadVariableOp" type="Const" version="opset1">
			<data element_type="f16" shape="1, 9, 1, 1" offset="2646" size="18"/>
			<output>
				<port id="0" precision="FP16" names="StatefulPartitionedCall/big_conv2d_stacked8/conv2d_24/BiasAdd/ReadVariableOp:0">
					<dim>1</dim>
					<dim>9</dim>
					<dim>1</dim>
					<dim>1</dim>
				</port>
			</output>
		</layer>
		<layer id="24" name="StatefulPartitionedCall/big_conv2d_stacked8/conv2d_24/BiasAdd/Add" type="Add" version="opset1">
			<data auto_broadcast="numpy"/>
			<input>
				<port id="0" precision="FP16">
					<dim>1</dim>
					<dim>9</dim>
					<dim>92</dim>
					<dim>92</dim>
				</port>
				<port id="1" precision="FP16">
					<dim>1</dim>
					<dim>9</dim>
					<dim>1</dim>
					<dim>1</dim>
				</port>
			</input>
			<output>
				<port id="2" precision="FP16" names="StatefulPartitionedCall/big_conv2d_stacked8/conv2d_24/BiasAdd:0">
					<dim>1</dim>
					<dim>9</dim>
					<dim>92</dim>
					<dim>92</dim>
				</port>
			</output>
		</layer>
		<layer id="25" name="StatefulPartitionedCall/big_conv2d_stacked8/conv2d_25/Conv2D/ReadVariableOp" type="Const" version="opset1">
			<data element_type="f16" shape="9, 9, 7, 7" offset="42354" size="7938"/>
			<output>
				<port id="0" precision="FP16" names="StatefulPartitionedCall/big_conv2d_stacked8/conv2d_25/Conv2D/ReadVariableOp:0">
					<dim>9</dim>
					<dim>9</dim>
					<dim>7</dim>
					<dim>7</dim>
				</port>
			</output>
		</layer>
		<layer id="26" name="StatefulPartitionedCall/big_conv2d_stacked8/conv2d_25/Conv2D" type="Convolution" version="opset1">
			<data strides="1, 1" dilations="1, 1" pads_begin="0, 0" pads_end="0, 0" auto_pad="valid"/>
			<input>
				<port id="0" precision="FP16">
					<dim>1</dim>
					<dim>9</dim>
					<dim>92</dim>
					<dim>92</dim>
				</port>
				<port id="1" precision="FP16">
					<dim>9</dim>
					<dim>9</dim>
					<dim>7</dim>
					<dim>7</dim>
				</port>
			</input>
			<output>
				<port id="2" precision="FP16" names="StatefulPartitionedCall/big_conv2d_stacked8/conv2d_25/Conv2D:0">
					<dim>1</dim>
					<dim>9</dim>
					<dim>86</dim>
					<dim>86</dim>
				</port>
			</output>
		</layer>
		<layer id="27" name="StatefulPartitionedCall/big_conv2d_stacked8/conv2d_25/BiasAdd/ReadVariableOp" type="Const" version="opset1">
			<data element_type="f16" shape="1, 9, 1, 1" offset="2646" size="18"/>
			<output>
				<port id="0" precision="FP16" names="StatefulPartitionedCall/big_conv2d_stacked8/conv2d_25/BiasAdd/ReadVariableOp:0">
					<dim>1</dim>
					<dim>9</dim>
					<dim>1</dim>
					<dim>1</dim>
				</port>
			</output>
		</layer>
		<layer id="28" name="StatefulPartitionedCall/big_conv2d_stacked8/conv2d_25/BiasAdd/Add" type="Add" version="opset1">
			<data auto_broadcast="numpy"/>
			<input>
				<port id="0" precision="FP16">
					<dim>1</dim>
					<dim>9</dim>
					<dim>86</dim>
					<dim>86</dim>
				</port>
				<port id="1" precision="FP16">
					<dim>1</dim>
					<dim>9</dim>
					<dim>1</dim>
					<dim>1</dim>
				</port>
			</input>
			<output>
				<port id="2" precision="FP16" names="StatefulPartitionedCall/big_conv2d_stacked8/conv2d_25/BiasAdd:0">
					<dim>1</dim>
					<dim>9</dim>
					<dim>86</dim>
					<dim>86</dim>
				</port>
			</output>
		</layer>
		<layer id="29" name="StatefulPartitionedCall/big_conv2d_stacked8/conv2d_26/Conv2D/ReadVariableOp" type="Const" version="opset1">
			<data element_type="f16" shape="9, 9, 7, 7" offset="50292" size="7938"/>
			<output>
				<port id="0" precision="FP16" names="StatefulPartitionedCall/big_conv2d_stacked8/conv2d_26/Conv2D/ReadVariableOp:0">
					<dim>9</dim>
					<dim>9</dim>
					<dim>7</dim>
					<dim>7</dim>
				</port>
			</output>
		</layer>
		<layer id="30" name="StatefulPartitionedCall/big_conv2d_stacked8/conv2d_26/Conv2D" type="Convolution" version="opset1">
			<data strides="1, 1" dilations="1, 1" pads_begin="0, 0" pads_end="0, 0" auto_pad="valid"/>
			<input>
				<port id="0" precision="FP16">
					<dim>1</dim>
					<dim>9</dim>
					<dim>86</dim>
					<dim>86</dim>
				</port>
				<port id="1" precision="FP16">
					<dim>9</dim>
					<dim>9</dim>
					<dim>7</dim>
					<dim>7</dim>
				</port>
			</input>
			<output>
				<port id="2" precision="FP16" names="StatefulPartitionedCall/big_conv2d_stacked8/conv2d_26/Conv2D:0">
					<dim>1</dim>
					<dim>9</dim>
					<dim>80</dim>
					<dim>80</dim>
				</port>
			</output>
		</layer>
		<layer id="31" name="StatefulPartitionedCall/big_conv2d_stacked8/conv2d_26/BiasAdd/ReadVariableOp" type="Const" version="opset1">
			<data element_type="f16" shape="1, 9, 1, 1" offset="2646" size="18"/>
			<output>
				<port id="0" precision="FP16" names="StatefulPartitionedCall/big_conv2d_stacked8/conv2d_26/BiasAdd/ReadVariableOp:0">
					<dim>1</dim>
					<dim>9</dim>
					<dim>1</dim>
					<dim>1</dim>
				</port>
			</output>
		</layer>
		<layer id="32" name="StatefulPartitionedCall/big_conv2d_stacked8/conv2d_26/BiasAdd/Add" type="Add" version="opset1">
			<data auto_broadcast="numpy"/>
			<input>
				<port id="0" precision="FP16">
					<dim>1</dim>
					<dim>9</dim>
					<dim>80</dim>
					<dim>80</dim>
				</port>
				<port id="1" precision="FP16">
					<dim>1</dim>
					<dim>9</dim>
					<dim>1</dim>
					<dim>1</dim>
				</port>
			</input>
			<output>
				<port id="2" precision="FP16" names="Func/StatefulPartitionedCall/output/_17:0,Identity:0,StatefulPartitionedCall/Identity:0,StatefulPartitionedCall/big_conv2d_stacked8/conv2d_26/BiasAdd:0">
					<dim>1</dim>
					<dim>9</dim>
					<dim>80</dim>
					<dim>80</dim>
				</port>
			</output>
		</layer>
		<layer id="33" name="Func/StatefulPartitionedCall/output/_17:0" type="Result" version="opset1">
			<input>
				<port id="0" precision="FP16">
					<dim>1</dim>
					<dim>9</dim>
					<dim>80</dim>
					<dim>80</dim>
				</port>
			</input>
		</layer>
	</layers>
	<edges>
		<edge from-layer="0" from-port="0" to-layer="2" to-port="0"/>
		<edge from-layer="1" from-port="0" to-layer="2" to-port="1"/>
		<edge from-layer="2" from-port="2" to-layer="4" to-port="0"/>
		<edge from-layer="3" from-port="0" to-layer="4" to-port="1"/>
		<edge from-layer="4" from-port="2" to-layer="6" to-port="0"/>
		<edge from-layer="5" from-port="0" to-layer="6" to-port="1"/>
		<edge from-layer="6" from-port="2" to-layer="8" to-port="0"/>
		<edge from-layer="7" from-port="0" to-layer="8" to-port="1"/>
		<edge from-layer="8" from-port="2" to-layer="10" to-port="0"/>
		<edge from-layer="9" from-port="0" to-layer="10" to-port="1"/>
		<edge from-layer="10" from-port="2" to-layer="12" to-port="0"/>
		<edge from-layer="11" from-port="0" to-layer="12" to-port="1"/>
		<edge from-layer="12" from-port="2" to-layer="14" to-port="0"/>
		<edge from-layer="13" from-port="0" to-layer="14" to-port="1"/>
		<edge from-layer="14" from-port="2" to-layer="16" to-port="0"/>
		<edge from-layer="15" from-port="0" to-layer="16" to-port="1"/>
		<edge from-layer="16" from-port="2" to-layer="18" to-port="0"/>
		<edge from-layer="17" from-port="0" to-layer="18" to-port="1"/>
		<edge from-layer="18" from-port="2" to-layer="20" to-port="0"/>
		<edge from-layer="19" from-port="0" to-layer="20" to-port="1"/>
		<edge from-layer="20" from-port="2" to-layer="22" to-port="0"/>
		<edge from-layer="21" from-port="0" to-layer="22" to-port="1"/>
		<edge from-layer="22" from-port="2" to-layer="24" to-port="0"/>
		<edge from-layer="23" from-port="0" to-layer="24" to-port="1"/>
		<edge from-layer="24" from-port="2" to-layer="26" to-port="0"/>
		<edge from-layer="25" from-port="0" to-layer="26" to-port="1"/>
		<edge from-layer="26" from-port="2" to-layer="28" to-port="0"/>
		<edge from-layer="27" from-port="0" to-layer="28" to-port="1"/>
		<edge from-layer="28" from-port="2" to-layer="30" to-port="0"/>
		<edge from-layer="29" from-port="0" to-layer="30" to-port="1"/>
		<edge from-layer="30" from-port="2" to-layer="32" to-port="0"/>
		<edge from-layer="31" from-port="0" to-layer="32" to-port="1"/>
		<edge from-layer="32" from-port="2" to-layer="33" to-port="0"/>
	</edges>
	<meta_data>
		<MO_version value="2021.4.1-3926-14e67d86634-releases/2021/4"/>
		<cli_parameters>
			<caffe_parser_path value="DIR"/>
			<data_type value="FP16"/>
			<disable_nhwc_to_nchw value="False"/>
			<disable_omitting_optional value="False"/>
			<disable_resnet_optimization value="False"/>
			<disable_weights_compression value="False"/>
			<enable_concat_optimization value="False"/>
			<enable_flattening_nested_params value="False"/>
			<enable_ssd_gluoncv value="False"/>
			<extensions value="DIR"/>
			<framework value="tf"/>
			<freeze_placeholder_with_value value="{}"/>
			<generate_deprecated_IR_V7 value="False"/>
			<input_model_is_text value="True"/>
			<k value="DIR\CustomLayersMapping.xml"/>
			<keep_shape_ops value="True"/>
			<legacy_ir_generation value="False"/>
			<legacy_mxnet_model value="False"/>
			<log_level value="ERROR"/>
			<mean_scale_values value="{}"/>
			<mean_values value="()"/>
			<model_name value="big_conv2d_stacked8"/>
			<output_dir value="DIR"/>
			<placeholder_data_types value="{}"/>
			<progress value="True"/>
			<remove_memory value="False"/>
			<remove_output_softmax value="False"/>
			<reverse_input_channels value="False"/>
			<save_params_from_nd value="False"/>
			<saved_model_dir value="DIR"/>
			<scale_values value="()"/>
			<silent value="False"/>
			<static_shape value="False"/>
			<stream_output value="False"/>
			<transform value=""/>
			<unset unset_cli_parameters="batch, counts, disable_fusing, disable_gfusing, finegrain_fusing, input, input_checkpoint, input_meta_graph, input_model, input_proto, input_shape, input_symbol, mean_file, mean_file_offsets, move_to_preprocess, nd_prefix_name, output, placeholder_shapes, pretrained_model_name, saved_model_tags, scale, tensorboard_logdir, tensorflow_custom_layer_libraries, tensorflow_custom_operations_config_update, tensorflow_object_detection_api_pipeline_config, tensorflow_use_custom_operations_config, transformations_config"/>
		</cli_parameters>
	</meta_data>
</net>
