<?xml version="1.0" ?>
<net name="simple_conv2d" version="10">
	<layers>
		<layer id="0" name="input_1" type="Parameter" version="opset1">
			<data shape="1, 3, 128, 128" element_type="f16"/>
			<output>
				<port id="0" precision="FP16" names="Func/StatefulPartitionedCall/input/_0:0,input_1:0">
					<dim>1</dim>
					<dim>3</dim>
					<dim>128</dim>
					<dim>128</dim>
				</port>
			</output>
		</layer>
		<layer id="1" name="StatefulPartitionedCall/simple_conv2d/conv2d/Conv2D/ReadVariableOp" type="Const" version="opset1">
			<data element_type="f16" shape="12, 3, 3, 3" offset="0" size="648"/>
			<output>
				<port id="0" precision="FP16" names="StatefulPartitionedCall/simple_conv2d/conv2d/Conv2D/ReadVariableOp:0">
					<dim>12</dim>
					<dim>3</dim>
					<dim>3</dim>
					<dim>3</dim>
				</port>
			</output>
		</layer>
		<layer id="2" name="StatefulPartitionedCall/simple_conv2d/conv2d/Conv2D" type="Convolution" version="opset1">
			<data strides="1, 1" dilations="1, 1" pads_begin="0, 0" pads_end="0, 0" auto_pad="valid"/>
			<input>
				<port id="0" precision="FP16">
					<dim>1</dim>
					<dim>3</dim>
					<dim>128</dim>
					<dim>128</dim>
				</port>
				<port id="1" precision="FP16">
					<dim>12</dim>
					<dim>3</dim>
					<dim>3</dim>
					<dim>3</dim>
				</port>
			</input>
			<output>
				<port id="2" precision="FP16" names="StatefulPartitionedCall/simple_conv2d/conv2d/Conv2D:0">
					<dim>1</dim>
					<dim>12</dim>
					<dim>126</dim>
					<dim>126</dim>
				</port>
			</output>
		</layer>
		<layer id="3" name="StatefulPartitionedCall/simple_conv2d/conv2d/BiasAdd/ReadVariableOp" type="Const" version="opset1">
			<data element_type="f16" shape="1, 12, 1, 1" offset="648" size="24"/>
			<output>
				<port id="0" precision="FP16" names="StatefulPartitionedCall/simple_conv2d/conv2d/BiasAdd/ReadVariableOp:0">
					<dim>1</dim>
					<dim>12</dim>
					<dim>1</dim>
					<dim>1</dim>
				</port>
			</output>
		</layer>
		<layer id="4" name="StatefulPartitionedCall/simple_conv2d/conv2d/BiasAdd/Add" type="Add" version="opset1">
			<data auto_broadcast="numpy"/>
			<input>
				<port id="0" precision="FP16">
					<dim>1</dim>
					<dim>12</dim>
					<dim>126</dim>
					<dim>126</dim>
				</port>
				<port id="1" precision="FP16">
					<dim>1</dim>
					<dim>12</dim>
					<dim>1</dim>
					<dim>1</dim>
				</port>
			</input>
			<output>
				<port id="2" precision="FP16" names="Func/StatefulPartitionedCall/output/_3:0,Identity:0,StatefulPartitionedCall/Identity:0,StatefulPartitionedCall/simple_conv2d/conv2d/BiasAdd:0">
					<dim>1</dim>
					<dim>12</dim>
					<dim>126</dim>
					<dim>126</dim>
				</port>
			</output>
		</layer>
		<layer id="5" name="Func/StatefulPartitionedCall/output/_3:0" type="Result" version="opset1">
			<input>
				<port id="0" precision="FP16">
					<dim>1</dim>
					<dim>12</dim>
					<dim>126</dim>
					<dim>126</dim>
				</port>
			</input>
		</layer>
	</layers>
	<edges>
		<edge from-layer="0" from-port="0" to-layer="2" to-port="0"/>
		<edge from-layer="1" from-port="0" to-layer="2" to-port="1"/>
		<edge from-layer="2" from-port="2" to-layer="4" to-port="0"/>
		<edge from-layer="3" from-port="0" to-layer="4" to-port="1"/>
		<edge from-layer="4" from-port="2" to-layer="5" to-port="0"/>
	</edges>
	<meta_data>
		<MO_version value="2021.4.2-3974-e2a469a3450-releases/2021/4"/>
		<cli_parameters>
			<data_type value="FP16"/>
			<disable_nhwc_to_nchw value="False"/>
			<disable_resnet_optimization value="False"/>
			<disable_weights_compression value="False"/>
			<enable_concat_optimization value="False"/>
			<extensions value="DIR"/>
			<framework value="tf"/>
			<freeze_placeholder_with_value value="{}"/>
			<generate_deprecated_IR_V7 value="False"/>
			<input_model_is_text value="True"/>
			<input_shape value="(1, 128, 128, 3)"/>
			<keep_shape_ops value="True"/>
			<legacy_ir_generation value="False"/>
			<log_level value="ERROR"/>
			<mean_scale_values value="{}"/>
			<mean_values value="()"/>
			<model_name value="simple_conv2d"/>
			<output_dir value="DIR"/>
			<placeholder_data_types value="{}"/>
			<placeholder_shapes value="[  1 128 128   3]"/>
			<progress value="True"/>
			<reverse_input_channels value="False"/>
			<saved_model_dir value="DIR"/>
			<scale_values value="()"/>
			<silent value="False"/>
			<static_shape value="False"/>
			<stream_output value="False"/>
			<transform value=""/>
			<unset unset_cli_parameters="batch, disable_fusing, disable_gfusing, finegrain_fusing, input, input_checkpoint, input_meta_graph, input_model, move_to_preprocess, output, saved_model_tags, scale, tensorboard_logdir, tensorflow_custom_layer_libraries, tensorflow_custom_operations_config_update, tensorflow_object_detection_api_pipeline_config, tensorflow_use_custom_operations_config, transformations_config"/>
		</cli_parameters>
	</meta_data>
</net>
